fashion/saved_models/best_model.pth (torch, 973263 bytes, 8 tensors)

fc1.weight f4 [256, 784]
000000 ae 04 6e 3e c8 2d 85 3e 41 2f 99 3e 4c 87 50 3e
       0.23243973 0.2601149 0.29918864 0.20364112
000010 4a b3 84 3e b6 38 63 3e ee 7a 38 3e dc 54 0a 3e
       0.25918037 0.22189602 0.18015644 0.13508934
000020 9e 4a 01 3e 8e 55 98 3e bd ee 85 3e 91 9c 11 3e
       0.1262612 0.29752773 0.26158705 0.14219882
000030 fb 1e 10 3e 46 16 31 3e 73 af 07 3e e2 bc 2c 3e
       0.14074318 0.17293653 0.13250522 0.16868928
000040 98 9f 6c 3e 28 9c 7e 3e ca 4f a1 3e 7b c6 2f 3e
       0.23107755 0.24864256 0.31506187 0.17165558
000050 d1 42 57 3e 52 97 84 3e eb ce 8d 3e a0 50 a3 3e
       0.21021582 0.25896698 0.27696928 0.3189745
000060 e4 75 86 3e de a3 62 3e b2 0d 33 3e 99 97 9c 3e
       0.26261818 0.22132823 0.17485693 0.3058441
000070 d1 45 8f 3e 4a 4c 8b 3e fc b6 c0 3e a5 5b 5b 3e
       0.27982953 0.2720664 0.37639606 0.21421678
000080 77 a7 87 3e 7b 7d 3c 3e 68 c2 a0 3d bd 32 2b 3e
       0.26494953 0.18407242 0.0784958 0.16718574
000090 53 bf 76 3e 15 83 47 3e d9 d6 ea 3d 0b 86 55 3d
       0.24096422 0.19483598 0.1146676 0.052129786
0000a0 76 de 5e 3c b5 7e b7 bd c5 89 03 bd e8 c2 0b be
       0.0136028435 -0.08959714 -0.03211381 -0.1364857
0000b0 bd 23 37 bd 94 68 42 3e 55 85 6b 3e 33 e9 8a 3d
       -0.044711817 0.18985206 0.23000081 0.067827605
0000c0 44 01 56 3e 68 b9 19 3e 96 bb f1 3d 4d 33 7c 3e
       0.2089892 0.15012133 0.11803357 0.24628945
0000d0 71 62 c3 3e 82 c8 6b 3e e1 5c 6b 3e 2b 33 c2 3e
       0.38161042 0.23025706 0.22984649 0.37929663
0000e0 f4 09 66 3e 56 6c 83 3e f9 f5 b6 3e 0d 92 d6 3e
       0.22464734 0.2566859 0.35734537 0.41908303
0000f0 c8 d4 8e 3e 43 7a d5 3d 8a 68 3d 3e e9 e4 64 3e
       0.27896714 0.1042371 0.1849691 0.22352947
000100 55 20 6b 3d 99 fa 52 3c 6b 34 f3 bc 18 ea 2c be
       0.05740388 0.01287713 -0.02968808 -0.16886175
000110 de 76 d6 bc be 1a 16 be f7 66 e5 bd 72 f4 83 be
       -0.026179727 -0.14658639 -0.112012796 -0.25772434
000120 c4 fe af be 9f dc 6e bd 4a 36 b2 3d 1c cf aa 3c
       -0.34374058 -0.05831587 0.08701761 0.02085071
000130 1a 55 9d bd c6 5b 95 bb 5c c0 f5 bd 2a 68 23 bd
       -0.076822475 -0.0045580594 -0.1199958 -0.03989426
000140 c7 aa 82 3e 1f 7e 95 3e f7 a0 b4 3e aa 93 d7 3e
       0.25520918 0.29197785 0.35279056 0.42104846
000150 59 04 6a 3e e6 6c 45 3e 01 0e 92 3e 1a 47 ba 3e
       0.22853221 0.19279823 0.2852631 0.3638237
000160 73 10 3b 3e 86 68 05 3e 97 53 ca 3d 3a ec 0a be
       0.18267994 0.13028154 0.09879225 -0.13566676
000170 aa 2a 02 be 48 84 0d be 57 10 6d be 2e 4c 1e be
       -0.12711588 -0.13819993 -0.23150764 -0.15458748
000180 3e 11 3d be 8f a3 57 be 21 bf 7e be f9 c6 77 be
       -0.18463609 -0.21058486 -0.24877597 -0.24196996
000190 00 e1 d1 be 3c 34 9d 3d 47 7f f4 3b c4 3f 1f be
       -0.40991974 0.076759785 0.0074614617 -0.15551668
0001a0 ca 93 41 be ed f2 8b be 09 c0 75 bd 76 2a c1 3a
       -0.18904033 -0.27333775 -0.059997592 0.0014737386
0001b0 20 18 67 3c 38 fd 91 3e eb 2c c3 3e ee ea 9f 3e
       0.014104873 0.28513503 0.38120207 0.31233925
0001c0 11 56 81 3e 31 1a 70 3e 1b 65 bb 3e 4d 44 79 3e
       0.25260976 0.23447491 0.36600575 0.24342461
0001d0 c0 25 68 3e 63 40 11 3e 50 ce 6f bc b7 22 65 be
       0.2267065 0.14184718 -0.014636591 -0.22376524
0001e0 6f 69 e9 bd 16 f4 86 bd cf b6 13 be b9 3b 87 be
       -0.11397063 -0.065895244 -0.14425205 -0.26412752
0001f0 3f 3d 72 be ab c6 24 be e2 ff 08 be 7b 71 d9 bd
       -0.23656176 -0.16091411 -0.13378862 -0.10617348
000200 3a b6 bd 3d e9 fd a4 3e a3 65 dc 3e 81 0c 3f 3e
       0.092632726 0.32224968 0.43046293 0.18657114
000210 95 c8 e6 3a 96 c1 15 be a1 49 f6 bd 42 8f 89 3d
       0.0017607386 -0.14624628 -0.12025762 0.067167774
000220 51 0b 60 be e2 0f 75 3d 91 c6 92 3e a4 1b 96 3e
       -0.21879317 0.0598296 0.2866712 0.29317963
000230 e8 48 88 3e 40 ad 1e 3e 34 05 b2 3e 97 37 8f 3e
       0.26618123 0.15495777 0.34769595 0.279721
000240 a4 55 88 3e 07 5c 6d 3d df 55 f9 bd 13 d6 4f be
       0.2662784 0.057949092 -0.12174582 -0.20296507
000250 36 d1 ea bd eb 77 3b be 89 21 68 be b3 4e 65 be
       -0.11465685 -0.18307464 -0.22669043 -0.22393303
000260 c5 41 6c be f4 2e af be 8d 40 10 be 89 14 07 bc
       -0.23071964 -0.3421551 -0.14087124 -0.008244642
000270 c9 57 8a 3d ac ee e7 3c ad 50 bb 3d 81 92 0a 3e
       0.06755025 0.02831205 0.09146247 0.1353245
000280 ec 49 48 3d bd 28 1e 3e bf ac bf bb 19 67 7a 3e
       0.048898622 0.15445228 -0.0058494504 0.24453391
000290 69 99 42 3e 01 e6 43 3e 37 9b e6 3e 08 ab 71 3e
       0.19003834 0.19130708 0.45040295 0.236004
0002a0 f4 0f 60 3e 19 27 17 3e d3 b7 8e 3e d3 30 85 3e
       0.21881086 0.14761008 0.27874622 0.26013812
0002b0 49 7d 43 3e d5 77 06 3d 5a 65 42 be ec ea 70 be
       0.19090761 0.032829124 -0.18983975 -0.23527116
0002c0 26 d6 31 be 3f 8b 96 be 2b 0e b2 be 53 56 78 be
       -0.17366847 -0.2940311 -0.34776434 -0.2425168
0002d0 9d 52 92 be 25 73 6c be c0 4b 75 bd 60 96 ab 3d
       -0.28578654 -0.23090799 -0.059886694 0.08378291
0002e0 e3 41 03 bd bc da 63 be 0e 87 fc 3c 7b d2 28 3d
       -0.032045256 -0.2225141 0.030826118 0.041216355
0002f0 8a 79 a2 3c 66 cf f4 3c 21 3f 8b bd c9 19 48 3e
       0.019833345 0.029884052 -0.0679915 0.19541086
000300 be df 67 3e b2 62 e5 3e 06 b9 0a 3f f5 59 05 3e
       0.22643945 0.4480186 0.54188573 0.13022597
000310 64 2b 2c 3e 34 d2 3d 3e 47 f7 45 3e a1 ea aa 3e
       0.16813427 0.18537217 0.1933261 0.33382133
000320 fa f6 1a 3e 32 a6 92 3d a2 b7 50 be ed ec 4f be
       0.15133277 0.071606055 -0.2038255 -0.20305224
000330 c8 cd 2e be b4 aa 96 be d5 e1 a4 be 7e f7 bb be
       -0.17070687 -0.2942711 -0.32203546 -0.3671226
000340 5e 09 a4 be bb b3 6b be 8f a2 92 bd 52 bd 7a 3d
       -0.32038397 -0.2301778 -0.07159912 0.061215706
000350 92 2a 5c be 91 71 53 bd cd 2c ab 3e a6 6b a7 3e
       -0.21500614 -0.051621977 0.33432618 0.32699317
000360 d9 1d 69 3d af 23 b8 3d b7 d6 ce bb 99 c7 19 3e
       0.05691323 0.08991181 -0.006312217 0.15017547
000370 d4 45 91 3e 6e 87 c6 3e 93 73 d5 3e 8f 6c 16 3e
       0.28373587 0.387752 0.4168974 0.1468985
000380 51 bb 78 3e be cc 01 3e 43 2e 38 3e c8 2d 8e 3e
       0.24290206 0.12675759 0.17986397 0.27769303
000390 59 39 aa bc 6b cb e4 3c b7 70 93 be d2 3a 4b be
       -0.020779299 0.027929028 -0.28796932 -0.19846657
0003a0 1f ef 28 be 27 08 2d be 1e 83 82 be 0d 99 bc be
       -0.16497467 -0.16897641 -0.2549066 -0.36835518
0003b0 8d ae d8 be 4a 97 c1 be e4 32 30 3d 6d 54 f2 3d
       -0.42320672 -0.37810737 0.043017283 0.11832509
0003c0 8f 79 e0 be 4e 9f 54 bd d0 ce a8 3e 59 d2 b2 3d
       -0.43842742 -0.051909737 0.32970285 0.08731527
0003d0 d4 8a 3f 3e 50 96 6a 3e 75 32 17 3e 17 1a 61 3e
       0.18705302 0.22908902 0.14765342 0.21982609
0003e0 8c 86 20 3e 85 f8 8e 3e b4 41 c3 3e e3 77 4a 3e
       0.15676326 0.2792398 0.38136065 0.19772296
0003f0 0d 20 46 3e 31 2b d8 3d 5d 4a 1a 3e 83 86 24 3e
       0.19348164 0.10555113 0.1506743 0.16066937

fc1.bias f4 [256]
000000 e2 30 83 be e9 95 3e be 9d 17 4f be 81 e1 80 be
       -0.25623232 -0.18611874 -0.20223852 -0.25172046
000010 e7 5c f4 bc ed 76 31 be 72 eb 1b bd 71 92 0e bd
       -0.029829456 -0.17330523 -0.038066335 -0.034807626
000020 4a 11 3b be 68 b5 a1 be f9 73 81 bd 9f e3 d1 bd
       -0.18268314 -0.31583714 -0.06320948 -0.102484934
000030 d2 0c 7b be 0f 71 53 bd 11 02 c5 bd 1c 8a a6 bd
       -0.2451661 -0.051621493 -0.09619535 -0.08131811
000040 38 61 5f be f9 20 39 be 7d d6 a6 bd 3e df 8b be
       -0.2181443 -0.18078984 -0.08146379 -0.27318758
000050 79 8a 65 bd 77 c6 79 be 28 16 8c bd e8 83 13 be
       -0.05604026 -0.24392115 -0.068401635 -0.14405787
000060 36 34 4d bd ea f3 9f bd d8 4a 21 be ce b9 15 be
       -0.05009862 -0.07810195 -0.15751207 -0.1462166
000070 5e dd 91 be b8 9b 34 bd fa 54 12 be 49 ef 76 be
       -0.28489202 -0.044093817 -0.14290228 -0.24114718
000080 2e 8f af bd 4b 08 7e bd 0a c1 cb bd 6d ff 88 bd
       -0.08572231 -0.062019628 -0.09948929 -0.066893436
000090 04 56 0a 3d 93 8e a4 3d cd d2 42 be 4b 3c a5 bd
       0.033773437 0.080350064 -0.19025727 -0.080681406
0000a0 18 a9 99 be 81 d0 d7 bd 9a 06 32 be 46 ac 34 be
       -0.3001182 -0.10537816 -0.17385331 -0.17643842
0000b0 f1 c9 76 bd a3 a3 4a be a3 34 b7 bd 23 0f c2 bd
       -0.06025118 -0.19788985 -0.089455865 -0.09475543
0000c0 86 39 1d be b0 46 d0 bd fc a2 95 bd c7 0b 03 be
       -0.15353975 -0.101697326 -0.073064774 -0.12797461
0000d0 fa 52 8d bd 1e b0 58 be 45 ef 84 bd f5 f9 26 be
       -0.06900592 -0.21160933 -0.064909495 -0.16306289
0000e0 a0 af fe bd 9b 30 67 be 67 70 80 be 91 e7 30 be
       -0.124358416 -0.22577135 -0.25085756 -0.17275836
0000f0 dc 49 39 be f7 80 96 be 0e 9c 33 be 86 90 2c be
       -0.18094581 -0.29395267 -0.17539999 -0.16852006
000100 69 f8 f9 bd c4 dc f3 bc df 96 08 be b1 94 32 be
       -0.122055836 -0.029768355 -0.13338803 -0.17439534
000110 90 ce a8 bd 0d 80 1e be e5 0f 68 bd ed 38 6b bd
       -0.08242524 -0.15478535 -0.056655783 -0.057427336
000120 ee 2f 01 be 7f 3d 44 be 2f 6c 71 be 53 48 c6 bd
       -0.1261594 -0.19164084 -0.23576425 -0.096817635
000130 48 b7 4d bd e5 15 97 bd f2 58 8f bd 97 74 6a bd
       -0.05022362 -0.07377223 -0.06999387 -0.057240095
000140 39 41 76 be 8e 4a 20 be bc 6f c5 be 8b 29 8d bd
       -0.24048318 -0.1565344 -0.3856181 -0.06892689
000150 49 9f f1 bd 91 b2 a2 bc 49 20 b5 bd 79 bc 9d be
       -0.11797959 -0.019860538 -0.088440485 -0.30807856
000160 0b b0 8a bd 2e 18 3c be 5b dc 3f bd 85 7a 7e be
       -0.06771859 -0.18368599 -0.046841007 -0.24851425
000170 22 1d d0 bc 8f 96 2c bd d9 10 ae 3d cc 22 3c be
       -0.025404517 -0.04213577 0.08499307 -0.18372649
000180 ea 42 13 bd f5 f0 3e be fe 28 f5 bd b6 7b 39 bd
       -0.035952486 -0.18646605 -0.11970709 -0.045283996
000190 1f c8 e6 bd 83 09 80 be 33 6f 54 be 5b 87 6f be
       -0.11268639 -0.25007257 -0.20745544 -0.23391478
0001a0 3f e8 37 be 75 51 63 be a5 a5 90 be d1 01 4c be
       -0.17959689 -0.22199042 -0.28251377 -0.19922568
0001b0 b4 89 5c be 66 b5 77 bd 49 5c 71 be db 5c 89 bd
       -0.21536905 -0.06047573 -0.2357036 -0.06707164
0001c0 82 17 ae bd 77 0f 6d be 8f 95 6d be bb 82 83 be
       -0.085005775 -0.2315043 -0.23201583 -0.25685677
0001d0 dd 8b 5e be 57 87 c8 bd 6b 57 3a bd 4a 86 d0 bc
       -0.21733041 -0.09791439 -0.045493525 -0.025454659
0001e0 46 75 22 be 9a 25 48 be 52 67 8e bd 9a 19 21 bd
       -0.15865049 -0.19545594 -0.069533005 -0.039331056
0001f0 97 96 45 be f3 14 02 be 22 5a bf bd e9 2f 6b bd
       -0.19295727 -0.12703304 -0.09343363 -0.057418738
000200 39 cc 72 be 62 ed f0 bd 6c e5 17 be d7 bf fc bd
       -0.23710717 -0.11764027 -0.14833611 -0.12341278
000210 d1 c8 6a bd 09 c9 51 be f1 58 66 3e 7a 96 00 be
       -0.05732042 -0.20486845 0.22494866 -0.12557402
000220 9b e5 78 bd 9d f9 57 be d3 b4 cb bd 39 be 73 bd
       -0.060765844 -0.21091314 -0.09946599 -0.059507582
000230 b8 63 96 be 84 35 26 be 9e 31 03 be 4b 49 2d bd
       -0.29372954 -0.16231352 -0.12811896 -0.042306226
000240 b3 36 70 3c 5e c6 0f be 4b 34 44 be 5f b3 d0 3b
       0.014661479 -0.14040515 -0.19160573 0.006369039
000250 6b db b8 bd e9 99 57 be 38 c7 6b 3e 39 5b f0 bd
       -0.09026226 -0.21054806 0.23025215 -0.11736149
000260 68 fb 1a 3e bb 9b 15 be d6 7f 07 bd 3e 7c c2 bd
       0.15134966 -0.14610188 -0.0330809 -0.094963536
000270 88 5d 04 be 62 44 1c be f5 7e f8 bd 76 f6 30 bd
       -0.12926304 -0.15260461 -0.1213359 -0.043203793
000280 7e 49 a9 be d6 90 5d be 72 bd 58 bd 04 ef 88 be
       -0.33063883 -0.21637282 -0.052915044 -0.26744854
000290 36 dd 2c be c5 08 2a be 98 0e b5 be a7 5c a0 3d
       -0.1688126 -0.16604908 -0.35362697 0.07830172
0002a0 38 b3 93 be ab 98 ab be 96 69 aa bd 66 44 97 bc
       -0.2884767 -0.33514914 -0.0832092 -0.018465232
0002b0 47 8f 61 bb c7 cd 85 be 64 26 83 bd 51 d7 90 be
       -0.0034417675 -0.26133558 -0.06403807 -0.28289273
0002c0 82 99 95 be f7 8b c5 bd a7 0b 2b bd 49 18 c5 bb
       -0.2921868 -0.09645837 -0.04175916 -0.006014858
0002d0 6f 34 b8 bd 0a c2 2a be c3 30 b3 be 6b 41 55 be
       -0.08994376 -0.16675583 -0.3499814 -0.20825736
0002e0 93 85 b2 bd 71 c5 1a bc 76 86 2b be 6f 78 1e bc
       -0.087168835 -0.009446488 -0.16750512 -0.009672268
0002f0 47 7a ed bd 86 c6 44 be 0d b9 81 bd ce bb 1f be
       -0.11595588 -0.19216356 -0.06334124 -0.15598986
000300 a2 dd 2f be 99 18 0a be 7c 6c a1 bd 23 ed c9 bd
       -0.1717439 -0.13485946 -0.0788202 -0.09859683
000310 b9 ea 5c be a1 76 2e be 6c ba 25 be d3 33 d8 be
       -0.21573915 -0.17037441 -0.16184396 -0.4222704
000320 25 7b 88 be 79 1d 9e be c1 1c 29 be b6 e5 28 be
       -0.26656452 -0.3088186 -0.16514875 -0.16493878
000330 cf 51 9a 3e 2b da 18 be e3 e3 74 be 19 be 79 bd
       0.3014054 -0.14926974 -0.23915057 -0.060972307
000340 e1 98 54 bd 04 23 60 bd 19 67 8a be 4f 58 e3 bd
       -0.05190361 -0.054720894 -0.27031782 -0.11100828
000350 ad 60 af be e5 18 52 be 44 67 e8 bd b8 99 f4 bd
       -0.34253445 -0.20517309 -0.11347821 -0.11943382
000360 ef 3f 87 3c 5d 91 0a be 3e 8a 66 bd f2 93 b0 bd
       0.016509978 -0.13532014 -0.05628418 -0.08621968
000370 6f de 40 be 03 bc 29 be f7 6c 95 bd 12 5d 17 be
       -0.18834852 -0.16575627 -0.07296174 -0.14781597
000380 21 18 6f be 42 eb 86 be d9 f3 92 be db 3c aa bd
       -0.23349048 -0.26351362 -0.28701666 -0.083123885
000390 d9 cc 82 be ab 83 a9 bd 10 76 00 be 84 a8 67 bd
       -0.2554691 -0.08277067 -0.12545037 -0.056557193
0003a0 ef 30 3d be e7 d1 0f bd 61 d3 38 be d0 1d a9 bd
       -0.18475698 -0.035112288 -0.18049385 -0.082576394
0003b0 fc 84 5a be 1d 9a 4a be bb 38 d5 bd bc 40 bc bd
       -0.21339792 -0.19785352 -0.10411211 -0.091920346
0003c0 15 43 a0 bc 36 64 3f be 61 a1 66 3c 11 66 6b be
       -0.019563237 -0.18690571 0.014076562 -0.22988154
0003d0 df 22 84 be 2a 30 5c be 50 7b 3f 3d 08 c1 c7 bd
       -0.25807855 -0.21502748 0.04674846 -0.09753615
0003e0 07 0f 61 3d 5a ff 9a bc 19 c4 80 bd 4c 62 5e be
       0.05494597 -0.01892059 -0.06287403 -0.21717185
0003f0 8f 8c 50 bd 8a a5 76 be ec 80 24 3a df 5b 2d be
       -0.050915297 -0.24086586 0.00062753144 -0.16929577

fc2.weight f4 [128, 256]
000000 4c 02 3c be 15 fa e5 3c e7 d2 0a be 54 a9 ae bd
       -0.18360251 0.02807335 -0.13557015 -0.085283905
000010 8a d7 85 3d 6e 6e 04 3a c9 52 5a 3d 07 3c fe be
       0.065352514 0.00050518557 0.053301606 -0.49655172
000020 4c 78 84 be 63 e5 de 3c 35 f9 2b bd 52 16 c7 be
       -0.2587303 0.02720899 -0.04198571 -0.38884217
000030 15 d4 1a 3d 34 3f 38 3d ac f4 00 bd 65 e1 5e be
       0.037799913 0.04498215 -0.031483337 -0.21765669
000040 92 74 c0 3d 55 82 f0 3d e3 d5 90 3d 57 e9 11 3d
       0.09397234 0.11743609 0.07072046 0.03562292
000050 8c 75 1a bd e1 fc 8f be 64 cd 21 3e 1b 88 9c be
       -0.037709758 -0.2812262 0.15801007 -0.3057259
000060 51 c4 e3 3d 88 7c de 3b c7 4c 4f be 7e 72 9c 3e
       0.11121429 0.0067897476 -0.20244132 0.305561
000070 bc b4 12 3e dc 90 54 bc ab 4e d8 bd be 91 d0 3d
       0.14326757 -0.01297399 -0.1056188 0.10184048
000080 ec 45 49 3d 2f 83 48 bd ab 36 8e 3b c4 94 15 be
       0.04913895 -0.04895323 0.004340013 -0.14607531
000090 f4 43 3e be dc 76 8b be 56 a5 08 3d dd 20 03 be
       -0.1858061 -0.2723912 0.0333608 -0.12805505
0000a0 cf 5e 1a 3c ad 98 cc bd d5 36 9a bd 5a 3e 15 bf
       0.009422018 -0.09990058 -0.0752999 -0.58298266
0000b0 1b 21 9a bd e0 94 4c bc 60 a7 6c bc 88 e5 b9 be
       -0.075258456 -0.012486666 -0.014444202 -0.3630793
0000c0 84 40 8e be a8 8d a9 3d c7 c0 33 3b a1 d7 71 be
       -0.27783597 0.08278972 0.0027428137 -0.23617412
0000d0 84 e8 88 bc b3 6e a1 3e bf f0 2c be 27 18 4a 3d
       -0.016712435 0.3152977 -0.16888712 0.04933944
0000e0 bf e1 74 bd c2 11 d6 bd e4 01 3a bc 83 47 33 bd
       -0.0597856 -0.10452606 -0.01135299 -0.04376937
0000f0 0e 5f 1a bf bd cf 12 bf 75 5a d5 be ec bc 93 3b
       -0.6030129 -0.57348233 -0.41670576 0.004508605
000100 79 d2 07 bf dc b4 93 bd b1 61 ee 3c 05 a7 8f 3d
       -0.5305553 -0.072122306 0.029099317 0.07014278
000110 e9 95 63 3c 3d c0 64 be d0 35 ea be c3 32 26 bd
       0.013890722 -0.22338958 -0.4574418 -0.040575754
000120 92 8d 73 be 9e 48 33 be 96 cf ac be 12 0f 52 3e
       -0.23784474 -0.1750817 -0.33752126 0.20513561
000130 99 55 f6 bc 13 0e 29 bd 61 9e ca be 06 ff 26 be
       -0.030070113 -0.041273188 -0.3957396 -0.16308221
000140 45 d0 75 bd 98 36 c0 bd f9 54 12 bd dd c0 71 bd
       -0.060013074 -0.09385413 -0.035725567 -0.05902182
000150 a6 90 bc be 1b c0 1c b9 03 d7 8f bc 27 ba 9c be
       -0.36829108 -0.00014948884 -0.01755858 -0.30610773
000160 46 a4 e7 3e ff aa 36 be e4 b9 4e 3e b0 f4 df 3d
       0.45242518 -0.17838667 0.20188099 0.10935342
000170 37 b8 36 3c 8a 44 3b 3d 19 f3 9f be fe fa 71 be
       0.011152319 0.04571966 -0.31240156 -0.23630902
000180 0f 6d 34 3d 34 07 a8 3a 63 98 15 3c 3f cd 56 3e
       0.04404932 0.001281953 0.00913057 0.20976733
000190 ba 51 95 be ab 61 4c bd 0b 25 63 be 75 35 21 bf
       -0.29163915 -0.04989783 -0.221821 -0.62972194
0001a0 51 35 0f 3d 45 55 76 bb 80 e4 f9 bd 34 de b1 be
       0.034962956 -0.0037587446 -0.12201786 -0.3473984
0001b0 72 68 d3 3d be ed 13 bc d8 d3 8a be 69 0a a6 be
       0.10322656 -0.00902885 -0.2711475 -0.32429817
0001c0 a5 89 90 bb 74 56 0d 3e 10 19 c5 bc 8a 8f de bd
       -0.0044109398 0.1380251 -0.024059802 -0.10867222
0001d0 4c 52 ea bd c7 4b 41 be 2b f3 2e 3d 13 8e 3f be
       -0.11441478 -0.18876563 0.04271237 -0.18706541
0001e0 26 19 ab be 76 30 12 3e 5f 92 8c bd 5f 60 e7 be
       -0.33417624 0.14276299 -0.068638556 -0.45190713
0001f0 3b 88 34 3d 66 01 54 bd 82 e8 9b bd 63 ff 21 3e
       0.044075232 -0.051759146 -0.07612707 0.15820079
000200 46 5b 0f be 68 dc 37 3d 92 81 70 bd 6a 19 5c 3a
       -0.13999662 0.04488793 -0.058717318 0.0008396121
000210 f9 6f c8 bc 3f af 6a be f3 05 32 be ad 63 8d 3e
       -0.024467455 -0.22918414 -0.17385082 0.2761511
000220 88 44 36 bd af d7 3f be 34 f0 97 bc 01 48 fc 3b
       -0.04449895 -0.1873462 -0.018547155 0.007699013
000230 00 30 86 3d 94 5b f7 3a c9 28 8d bb 49 86 a7 3c
       0.06552124 0.0018871897 -0.0043078405 0.020449774
000240 89 7a 10 bd 94 b1 f1 bd 25 af 76 bd 7e e7 4e bb
       -0.03527311 -0.118014485 -0.060225625 -0.0031571086
000250 ac b5 5f bd b6 46 e7 bd d2 cc 3a be 61 17 04 3d
       -0.054616615 -0.11292784 -0.18242195 0.03224886
000260 18 85 bb be 02 c2 15 3d cb dc 86 bd d6 1c 9c 3c
       -0.3662498 0.036561973 -0.06585082 0.019056719
000270 ba d8 85 be c6 0f ed 3d 4a 53 a9 3d 6e d7 2f bc
       -0.26141912 0.11575274 0.08267839 -0.010732515
000280 33 88 bf 3d 9c 43 06 bf bc 85 4c 3d b8 c2 cb bd
       0.0935215 -0.52446914 0.049932227 -0.09949249
000290 6e bd ce be c5 9d 14 be ae 98 9c 3d b3 a1 24 be
       -0.40378898 -0.1451331 0.07646309 -0.16077308
0002a0 4a 9e 10 3e 54 5f 86 3d e4 c9 4b be 18 58 c5 3a
       0.14122882 0.06561151 -0.19901234 0.0015056161
0002b0 aa 51 e1 bc e3 80 27 3d cb 7d 06 3d b9 45 82 be
       -0.02750476 0.0408944 0.03283481 -0.2544382
0002c0 11 ba f2 bd 7f e7 28 bd 58 7c 83 bd e2 cd 9e 3b
       -0.118518956 -0.041236397 -0.06420201 0.0048463205
0002d0 6e 78 4d bd 23 65 89 3e 94 9e 06 bd f2 96 03 be
       -0.05016368 0.26834974 -0.032866076 -0.1285055
0002e0 a6 b0 d0 bd f2 7b 96 bd f4 70 85 be 30 70 e6 3c
       -0.10189943 -0.073478594 -0.2606274 0.028129667
0002f0 9f 8b 9e 3d fb 43 b1 be 21 1b 9d 3d 81 4a 09 bf
       0.07741474 -0.34622177 0.0767119 -0.5362931
000300 dd 9a 02 be 67 59 63 bd 75 4d 55 be 23 c0 28 bd
       -0.12754388 -0.055505183 -0.20830329 -0.04119886
000310 ce 42 b4 3d c1 d0 94 3e b5 42 7e be 8c 76 b1 3c
       0.088018045 0.29065517 -0.24830134 0.021662973
000320 31 a1 99 bd 44 09 9a bd 46 12 d6 3a d6 a4 36 be
       -0.07501448 -0.075212985 0.001633235 -0.17836317
000330 83 bd 94 be 3a 33 ae be 08 d2 c0 be 75 fb 93 3d
       -0.29050836 -0.34023458 -0.3766024 0.07225696
000340 7c 96 96 3d 7a 41 3d 3d 0b 98 ee 3c ad 9f f0 bd
       0.07352921 0.04620502 0.029125234 -0.11749206
000350 e0 39 7b be d0 e0 1a 3d 70 8d b6 be c6 cc f2 be
       -0.24533796 0.037812054 -0.35654783 -0.47421855
000360 81 53 4f be 21 4b 3c bd f7 83 10 bc 1a cc 5d bb
       -0.20246698 -0.045970086 -0.008820525 -0.0033843578
000370 70 90 5c 3e 65 24 0e bd bc 28 67 3e 35 54 fc bd
       0.21539474 -0.034702677 0.22574133 -0.12320749
000380 37 82 48 3e d6 4c 1c be 2d e2 ae be 02 6b a9 3d
       0.19580923 -0.15263686 -0.34156933 0.08272363
000390 2c 52 06 3e de 94 17 bb da 10 80 3d 85 2d 8f 3d
       0.13117284 -0.0023129503 0.06253214 0.06991104
0003a0 f2 09 1a be 48 54 98 bc 15 c2 9c be 8d 9c 2a bd
       -0.15042856 -0.018594876 -0.30616823 -0.041653205
0003b0 21 c4 9f bd 71 dd 45 3e f4 81 31 3e 2a 32 1d be
       -0.078010805 0.19322754 0.1733473 -0.15351167
0003c0 83 39 69 be 97 60 19 bd a6 68 e3 3d 2d 16 d3 bc
       -0.22775845 -0.03744563 0.111039445 -0.02576741
0003d0 57 b8 c2 be d8 a4 e9 3c 7e d3 ab bd 1b b8 20 3d
       -0.38031265 0.028520986 -0.08389948 0.039238077
0003e0 7c fe e6 be 78 2a 14 bd df ad 31 bd 38 c0 e5 bd
       -0.4511603 -0.036173314 -0.043378707 -0.112183034
0003f0 38 b9 04 be 8d 38 f2 bc ae 54 cd 3c 00 f3 15 bf
       -0.1296128 -0.029567981 0.025064792 -0.58573914

fc2.bias f4 [128]
000000 e6 e4 28 3f bc a5 fe be 28 b6 64 bd 80 b0 6f 3c
       0.6597427 -0.4973582 -0.05583778 0.014629483
000010 b3 8b d6 3e 4d a5 1e bf 2f d5 19 be e0 24 51 3f
       0.41903457 -0.6197098 -0.1502273 0.8169689
000020 cc 69 30 3e 6f 83 f7 bd a6 ef 26 be 47 83 13 3e
       0.17227858 -0.12085616 -0.16302356 0.14405547
000030 e4 e0 4f 3e f1 d0 b7 3e b4 0c 77 bd 2a 08 2e 3f
       0.20300633 0.35901597 -0.06031485 0.6798121
000040 79 20 89 bf 8e da 68 3e 2c 99 83 3e f9 73 34 3e
       -1.0713035 0.22739622 0.25702798 0.17622365
000050 5f d1 b5 3d 51 cd 5e bf f5 84 76 3e be ea 3d 3e
       0.08877825 -0.8703204 0.24074157 0.18546578
000060 1b 0d 97 3d 70 fd 21 bf 98 3c 58 be f4 f0 bc 3e
       0.073755465 -0.6327734 -0.21116865 0.36902583
000070 43 46 0b be eb c0 a3 3e b1 dd 59 be 20 34 b0 3e
       -0.13601021 0.31983122 -0.21275975 0.34414768
000080 d5 bd e0 3d 7e dd 2f bf 85 07 39 3e 68 1e 11 bf
       0.109737076 -0.68697345 0.18069275 -0.5668702
000090 b3 57 5e 3e a7 b6 7e bf 29 43 cd 3d c4 ba aa be
       0.21713142 -0.99497455 0.100225754 -0.33345616
0000a0 6b bd 2f 3d 5d fc 0c bf 1e d7 1b be 06 62 c9 be
       0.042905252 -0.55072576 -0.1521878 -0.39332598
0000b0 e8 2d 81 3f 43 bc 9b be f3 83 82 be 39 c7 fd be
       1.0092134 -0.3041707 -0.25491294 -0.49566057
0000c0 c6 a4 94 be b5 1a 5f bf be 8c da bd d2 97 39 bf
       -0.29031962 -0.87150127 -0.10671376 -0.72497284
0000d0 0a b7 5d be 45 a3 0f bf e8 c6 4e 3e e3 73 3a bf
       -0.21651855 -0.56108505 0.20193064 -0.7283308
0000e0 b2 5b 8b be 89 85 87 bf 21 f8 34 bf 60 9d 2c bc
       -0.27218395 -1.0587627 -0.70691115 -0.010535568
0000f0 25 63 58 3e 79 d7 40 be 32 e7 3d 3e 6c 02 cf 3e
       0.2113157 -0.18832196 0.18545225 0.40431535
000100 22 4d 06 bf 74 33 98 3c a5 3d 13 be ed 83 38 bf
       -0.52461445 0.018579222 -0.14378984 -0.720763
000110 2f 01 73 be d6 19 ec 3e 8c 7b fb be d6 14 6a be
       -0.2373092 0.4611346 -0.49117696 -0.22859511
000120 ed a1 9e 3e 8c 0c 4e 3f 88 30 b0 3e 66 08 07 3f
       0.30982915 0.80487895 0.34412026 0.5274719
000130 a3 89 81 be 57 0b cf bc 87 57 84 bf eb ee e6 be
       -0.2530032 -0.025273962 -1.0339211 -0.45104155
000140 20 dc 65 3e a7 a7 cf be 59 b0 0a bf 66 82 30 3d
       0.22447252 -0.40557596 -0.54175335 0.043093108
000150 62 d0 3b 3f 66 e7 b1 bd 5f a8 7d 3d 78 fa 37 bc
       0.7336484 -0.08686714 0.06192815 -0.01122915
000160 d1 7c 39 bd 19 cd 8e 3e 50 4a d0 3e 9f 30 74 3b
       -0.04528505 0.27890852 0.40681696 0.0037260426
000170 02 81 02 bf f5 bb 84 3e fa 8d 54 bf b1 c2 c5 be
       -0.509781 0.2592465 -0.8302914 -0.386251
000180 3f 8f 7f 3e 0a 7f 34 3e 74 18 9f 3f b1 3b 5b be
       0.24956988 0.17626587 1.2429338 -0.21409489
000190 b5 e1 82 3f 60 19 99 be 8d fb 8b 3e 20 9a ee be
       1.022513 -0.29902172 0.27340356 -0.46601963
0001a0 e4 73 08 3f 20 34 a9 3e 68 fc 3f bf 3a c1 20 3e
       0.53301835 0.3304758 -0.74994516 0.1569871
0001b0 d9 11 53 bf 4f 45 76 3c 45 4f 36 be ca 74 55 bf
       -0.8244911 0.015031173 -0.17803676 -0.8338133
0001c0 5d 5d 03 bf cb 1d ee 3d 6a 5d 4f bf a5 68 8c 3b
       -0.51314336 0.11626776 -0.81001914 0.0042849355
0001d0 a6 d8 07 3e 11 83 fd be dc eb 12 3e 92 de 0c bf
       0.13266239 -0.49514058 0.14347786 -0.55027115
0001e0 db 6b 23 3e 8e 82 db 3e be dd f0 3c e6 96 15 3f
       0.15959112 0.42873043 0.02940261 0.5843338
0001f0 c8 b0 78 3e 84 bf b2 3d 9b 89 40 3f 99 b2 60 be
       0.24286187 0.08727935 0.7520997 -0.2194313

fc3.weight f4 [64, 128]
000000 5e 0a 18 3d 54 54 d9 bd 53 43 79 3d 30 1d a9 be
       0.037119262 -0.106117874 0.06085522 -0.3303008
000010 e1 53 00 3e 0a c1 90 3d 44 7b 95 3d a6 a7 f1 be
       0.12531997 0.07068069 0.07298902 -0.47198218
000020 b7 1d ad be 8a ec de bd b5 34 49 be 1b 66 2f 3c
       -0.33811733 -0.1088496 -0.19649012 0.010705496
000030 7e 24 bf 3d de f4 f2 be 70 8a 12 3d 85 75 b2 be
       0.09333132 -0.47452444 0.035776556 -0.34855285
000040 ac 01 d8 3d 9a eb da be 17 0b 07 be e3 ac f9 be
       0.10547194 -0.42757875 -0.13187824 -0.48764715
000050 2a 2f 05 bf b6 c1 c4 bd 6f 96 bc bd 66 fc b7 3c
       -0.5202509 -0.0960726 -0.092083804 0.02245922
000060 05 b2 2f 3c 4e 4a b6 3d ac a8 9c 3d 9a c9 a3 bd
       0.0107235955 0.08900891 0.07649359 -0.07997437
000070 57 63 8f be 9b eb 94 be 3b 84 7d be 90 3e 9d bb
       -0.28005478 -0.29086003 -0.24757473 -0.004798718
000080 97 ee 4b be 64 06 50 bf d6 bf 28 be fe d8 c6 be
       -0.19915234 -0.8125975 -0.1647943 -0.38837427
000090 27 d9 96 3d 09 93 70 3e 3d 92 1f bf ae 2c 86 3e
       0.07365637 0.2349359 -0.62332517 0.26205963
0000a0 fe 5b b9 3c 21 6d 55 be e1 94 20 bd ea 6a 14 be
       0.022626873 -0.2084241 -0.039204482 -0.1449391
0000b0 4f 03 2f bf 5c 89 78 3e fe b6 1e be 67 86 a8 3d
       -0.68364424 0.24271148 -0.15499493 0.0822876
0000c0 bb 7f ec 3b 36 4c 38 3d 29 11 07 bb 1f 26 a6 be
       0.007217375 0.044994555 -0.0020609593 -0.3245096
0000d0 63 f8 a2 be 5c ef 96 be 0a 3b 0e bf 8d 0a 59 3d
       -0.3183013 -0.29479492 -0.55558836 0.052988578
0000e0 73 77 bb 3e 11 11 33 3d 82 a3 eb bd 62 3f 25 3e
       0.3661457 0.043717448 -0.11505796 0.1613746
0000f0 9a 1a 12 bf bb 0f 3f be b2 8d 7a 3b 91 2c 05 be
       -0.5707184 -0.18658344 0.003823143 -0.13005282
000100 52 19 44 be 72 cc 09 bf cc f0 79 bb 7e 4d 22 3e
       -0.19150284 -0.53827584 -0.003813791 0.15849873
000110 d3 2a 22 be f0 2f a0 bd ef 88 1a 3e 4c 94 10 3d
       -0.15836649 -0.07821643 0.15091299 0.035297677
000120 8d cf e2 bd 1a ec aa bc 6a 75 03 bf da 55 8e bd
       -0.110747434 -0.020864535 -0.51351035 -0.06949969
000130 48 7d 2b bd b4 5b 86 bd c3 b7 b5 bc 9f 9e 1f be
       -0.041867524 -0.0656046 -0.022182351 -0.15587853
000140 4b c0 80 be 81 98 08 be 84 ff 8f bd e6 41 07 bf
       -0.25146708 -0.13339426 -0.070311576 -0.5283493
000150 55 3c 02 3e a1 4a 13 bd 25 db d4 be b9 4d 27 3e
       0.12718327 -0.035959844 -0.41573444 0.16338243
000160 d8 f6 e8 3c c1 3e c8 bd 2c 51 61 bd 69 a1 d0 bd
       0.028438017 -0.09777594 -0.055009052 -0.101870365
000170 7a 5e 69 3e 7d 79 4a 3d c6 73 32 be 97 9c 5b 3d
       0.22789946 0.049432267 -0.17426977 0.053616133
000180 9e 00 8d be 08 0d 92 be af 30 e6 be d8 ab b4 bd
       -0.27539533 -0.28525567 -0.44959018 -0.08821839
000190 45 af f6 be 61 21 da bd 41 c7 a2 be ea 7d 7d 3d
       -0.48180595 -0.10650898 -0.31792644 0.06188766
0001a0 99 f3 52 3d f8 68 27 bd 7c 10 bf be 83 c3 8a 3d
       0.051501844 -0.04087159 -0.37317264 0.06775572
0001b0 b2 f0 10 be 14 ae 49 3e ef db c4 bd 79 b8 7e 3e
       -0.14154318 0.19695312 -0.096122615 0.24875058
0001c0 da f6 5f 3d 3d 0d c2 bd 33 c8 80 be fa 91 d5 be
       0.054678775 -0.09475181 -0.2515274 -0.41712934
0001d0 6d 0f df bb af 93 ce be 0a 4f 5d 3d c9 fa 03 3e
       -0.006807259 -0.4034705 0.054030456 0.12888636
0001e0 13 a1 ac 3d e6 69 94 be 61 77 22 3e 5e 33 1c be
       0.0842916 -0.28987044 0.15865852 -0.1525397
0001f0 ce 32 15 be 48 3e 74 be 50 a1 c7 bc b3 31 35 be
       -0.14570162 -0.23851883 -0.024368912 -0.1769474
000200 f7 00 74 be 86 48 90 3e f2 c4 97 be 7b 2a 27 be
       -0.23828493 0.2818033 -0.29642445 -0.16324799
000210 c8 4e af be 9c ad 3f bd 4f b3 5c bd 87 41 1d be
       -0.34239793 -0.046796426 -0.05388194 -0.15357028
000220 39 8a 8e be 82 4c d3 bb 2d 5a 92 bd cb 57 da be
       -0.2783983 -0.0064483294 -0.07146106 -0.42645106
000230 7a 79 90 3d 49 70 5f be 11 a3 b1 be 67 20 7f be
       0.0705442 -0.21820177 -0.34694722 -0.24914704
000240 50 92 a0 3c 87 8e 04 be 1c 69 2e be bd 61 22 be
       0.019601017 -0.12944995 -0.17032284 -0.15857597
000250 15 66 0f 3e aa e7 68 bd be dd 9a be f8 6b 73 3d
       0.14003785 -0.056861557 -0.302473 0.05942914
000260 36 f6 1a be 61 7c ab 3d 40 6e 51 be f8 27 b6 be
       -0.15132985 0.08373333 -0.20452213 -0.3557737
000270 f8 84 93 be 1b 52 34 be 56 a1 9e 3e 1e 24 2d be
       -0.28812385 -0.17609446 0.30982465 -0.16908309
000280 61 7e b2 3c bd d8 f3 bd 85 35 df 3c 87 50 36 be
       0.021788778 -0.11906574 0.0272472 -0.17804156
000290 f4 06 9d be 8e 3d 83 3e e5 24 08 bf cf 0a 9e bd
       -0.30669367 0.256329 -0.53181297 -0.07716905
0002a0 cd 79 31 3e 3a bd 3b 3e d5 ba b8 be 2c f0 bf 3d
       0.1733162 0.18333903 -0.36080042 0.09371981
0002b0 8b db 08 bf 87 b0 f8 3d 7a 0c b4 be 7f e5 f9 3d
       -0.53459996 0.12143045 -0.3516577 0.12201976
0002c0 c9 c7 eb be ff a4 67 3d 14 92 44 be d5 67 fe 3d
       -0.4605086 0.056553837 -0.1919635 0.12422148
0002d0 a4 e8 2e 3e 65 31 89 3e d1 60 d0 be 54 dc 61 3d
       0.17080933 0.26795498 -0.40698865 0.055141762
0002e0 a1 35 dd 3e 85 bc 0c be 48 95 d3 3e e9 c0 a3 bd
       0.43204978 -0.1374379 0.4132483 -0.07995779
0002f0 7d d6 5a bd c1 60 22 be 08 00 48 3d 43 46 e5 bb
       -0.05342721 -0.15857221 0.048828155 -0.0069969012
000300 c6 01 6e be a9 87 9a bd 68 44 0a be 8e fc be be
       -0.23242864 -0.07545406 -0.13502657 -0.3730206
000310 0b 3a aa bd a4 4b ca be b5 fe b8 bd 47 d6 47 be
       -0.08311852 -0.39510834 -0.090329565 -0.19515334
000320 6c 3c 53 be e8 ef 14 3c aa 21 11 3e 14 99 18 be
       -0.20628518 0.009090401 0.14172998 -0.14902145
000330 c3 b7 73 bd 87 09 e7 bd 94 da 81 3d 1c 24 fd be
       -0.05950142 -0.11281114 0.063405186 -0.49441612
000340 9f 1d ba be 24 c1 af 3c f4 fd 96 be 7c 56 f4 3c
       -0.36350724 0.021454401 -0.29490626 0.029826395
000350 c2 58 c6 3d 4c 6f 6d 3d e0 89 ab be 04 16 c9 bd
       0.09684898 0.05796747 -0.33503628 -0.09818652
000360 b3 dd 53 bd 8b fb 04 be 94 fb 99 be eb ec 69 3a
       -0.0517251 -0.12986581 -0.3007475 0.0008923548
000370 b5 c2 16 bd ed db 50 be 1a 37 8b 3d 2f 56 09 be
       -0.03680678 -0.20396395 0.06797619 -0.13411783
000380 bf 83 c7 bd 37 75 b0 3d 05 c7 1a bf d2 5b 4c 3d
       -0.097419254 0.08616107 -0.6045993 0.049892254
000390 cc b2 24 be da 5d 9b be 81 ab 71 be f8 a7 5d 3b
       -0.1608383 -0.3034504 -0.2360058 0.003382204
0003a0 6c 41 40 be 80 f1 9b be fc e9 a8 3d 34 e8 80 be
       -0.18774956 -0.30457687 0.08247754 -0.25177157
0003b0 4c 74 25 bc 6a 84 6b bd b8 35 88 be 87 51 d6 3d
       -0.010098528 -0.057499327 -0.26603484 0.10464769
0003c0 00 18 22 3e 3e 57 fa be a2 6d e7 bd 89 fd e1 bc
       0.15829468 -0.48894686 -0.11300208 -0.027586715
0003d0 79 ba bc bc 6f 46 e6 be 6a 09 43 be de 6e d4 bd
       -0.023038136 -0.44975612 -0.1904656 -0.10372709
0003e0 97 f0 d5 be 2e 2f 75 3e 90 ca 25 be ce 7d f9 bc
       -0.41785118 0.23943779 -0.16190553 -0.030455496
0003f0 e2 26 c7 bd 19 94 6e 3b c6 1a 2c be a0 96 03 bd
       -0.09724213 0.003640419 -0.16807088 -0.03212607

fc3.bias f4 [64]
000000 0b 64 8d 3f 0e ba 83 bf a1 5c 92 bf 40 1c 21 3f
       1.1046156 -1.0291154 -1.1434518 0.6293373
000010 49 7a 49 3f 2c bb 7e 3f 3e e9 ac 3f 88 65 fd 3e
       0.7870222 0.9950435 1.350868 0.49491525
000020 4e 9e 70 3f 56 2d 33 3f 9d ab 89 3f 59 68 7d 3f
       0.93991554 0.6999105 1.0755497 0.98987347
000030 0b f5 6b bf ff 12 32 3f fb da 93 3f c6 11 91 3f
       -0.9217078 0.69560236 1.1551203 1.1333549
000040 12 1f 6e 3f 32 09 e3 bd d0 42 52 3f 79 9a 97 bf
       0.9301616 -0.11085738 0.821332 -1.1844016
000050 47 31 2c 3f 68 d5 ee 3e e8 05 b2 3f 75 8f 6c 3f
       0.6726269 0.4664719 1.3908052 0.924064
000060 02 41 99 3f de f2 eb 3e bf b4 82 3f e4 69 62 3f
       1.1972964 0.4608373 1.0211409 0.88442826
000070 36 44 4f 3f 86 09 7a 3f 40 16 f3 be 98 37 46 3f
       0.80963457 0.9767078 -0.47477913 0.7742858
000080 9f 50 54 3f 99 68 54 3f 7f d3 44 3f aa 14 6f 3f
       0.8293552 0.82972103 0.7688522 0.93390906
000090 7f 27 64 bf b9 7c 3e 3f 11 fb 7a 3f 59 5b 0d bf
       -0.89122766 0.7440906 0.98039347 -0.5521751
0000a0 de 4d 53 3f 66 a0 96 3e fd ad 15 3f 90 d2 82 3f
       0.8254069 0.2941925 0.5846861 1.0220509
0000b0 91 6c 2b 3f aa 6a 63 3f 2e 5b 9f 3f 5e cd 50 3f
       0.66962534 0.8883463 1.2449701 0.81563365
0000c0 79 c7 0c 3f 58 b7 0f bd ec e5 25 3f 9a b1 25 3f
       0.5499187 -0.03508696 0.6480396 0.64724123
0000d0 cf 27 03 bf 49 21 90 3f 7a 92 16 3f f4 13 60 3f
       -0.5123262 1.1260158 0.58817255 0.87530446
0000e0 18 35 9c 3f ee db 25 3f 16 7c 62 3f 3f 5f 22 3f
       1.2203703 0.6478871 0.8847059 0.63426584
0000f0 77 f4 72 3f a8 87 42 3f f3 a2 66 bf 41 d8 74 3f
       0.94904274 0.75988245 -0.9009239 0.9564248

fc4.weight f4 [10, 64]
000000 8b 48 bf bd fa 7b 45 be 3e 17 42 be 58 97 07 be
       -0.09340008 -0.19285575 -0.18954179 -0.13241327
000010 a8 f6 b0 bd fd f7 96 bc c4 eb d7 3d f0 19 62 bc
       -0.08640796 -0.018428797 0.105430156 -0.013800129
000020 fe 9b 9e 3d 5b 77 ac bd e5 d0 39 be d2 e6 f6 3d
       0.07744597 -0.08421203 -0.18146093 0.12055744
000030 84 ad 38 be 4e 61 85 be 69 44 f3 3c e7 89 d9 bc
       -0.18034941 -0.260508 0.029695706 -0.026555015
000040 52 2e 6c 3d a6 e3 b7 3c d8 a7 2e 3c ea b4 ce be
       0.057661362 0.022447418 0.010660134 -0.403724
000050 09 15 ee be d4 f8 00 be 83 be 4f bc 2a b1 81 be
       -0.46500424 -0.1259492 -0.012679699 -0.25330478
000060 29 42 d9 bc 8e eb 5f be 10 71 05 3e 01 49 8e 3d
       -0.026520805 -0.218672 0.13031411 0.06947518
000070 a5 b0 34 3e 6f 7d 81 be 38 c9 59 be 33 63 1c be
       0.1764551 -0.2529101 -0.21268165 -0.15272216
000080 09 ca b1 3d 81 73 7d bb 93 fc 36 3d bd 91 85 3d
       0.08681113 -0.0038673582 0.044674467 0.06521938
000090 04 19 a4 bd 71 d1 34 be 85 ad bf 3d e8 32 f9 bd
       -0.08012584 -0.1765802 0.09359268 -0.12167913
0000a0 26 62 a6 bd 12 c9 1b be 6b 9e bc bd a3 a8 a9 bd
       -0.08124189 -0.15213421 -0.09209903 -0.08284118
0000b0 e7 0e aa bd 55 a8 f8 3d 6a 4a 48 3c c6 e2 99 bd
       -0.08303624 0.12141482 0.012224773 -0.07513957
0000c0 bb 71 ab bd 8f 99 a3 3d d6 d5 03 3e 09 37 50 bb
       -0.08371302 0.07988273 0.1287454 -0.0031771085
0000d0 08 83 52 bd 84 64 52 3d 7d c0 05 be 5f 06 42 be
       -0.051394492 0.05136539 -0.1306171 -0.18947743
0000e0 cb bd 17 3e 91 b9 38 be 65 19 0c 3e 53 22 38 bf
       0.14818494 -0.18039538 0.13681562 -0.71927375
0000f0 e1 f9 05 3e b7 e7 97 3d 03 3b d6 bc 03 74 18 3d
       0.13083602 0.07417243 -0.026151186 0.037220012
000100 84 12 c6 be 40 03 e0 be 98 cb 6a be a2 3b 8a be
       -0.38686 -0.4375248 -0.22929227 -0.2699862
000110 65 87 bc bd 9a fa 7c bc 8e b3 23 be a7 4b 86 3d
       -0.09205512 -0.015440607 -0.15986463 0.06557398
000120 36 f6 1d be f8 df 0c 3d d2 5a 60 3c 82 76 e9 3c
       -0.15425953 0.03439328 0.013693528 0.028498892
000130 b7 30 fe be 3e 6c e0 be bd 2d 52 be a5 f3 a2 be
       -0.4964654 -0.43832582 -0.2052526 -0.3182651
000140 31 f1 3a be 37 6f d2 bd 37 af fe 3d 2e cf cb be
       -0.1825607 -0.10275119 0.12435763 -0.39806503
000150 10 0b 89 be ec 55 d6 be 58 21 cf 3d f3 e0 00 be
       -0.26766253 -0.41862428 0.10113782 -0.12585811
000160 dd 33 9d 3d fc dc ba 3c 98 3f da bd 49 16 8b 3d
       0.07675908 0.022810452 -0.10656661 0.0679136
000170 0a 41 27 bb 38 a3 b3 be c9 c5 df bd 9e 57 61 bd
       -0.0025520944 -0.35085464 -0.109263964 -0.0550152
000180 36 e8 1e be 8c a9 f8 3c 6b 48 f3 3d 50 e5 e2 3c
       -0.15518269 0.030354284 0.11879047 0.027697235
000190 81 e0 26 be b6 b5 c8 be 12 aa 9b be 8c 7b 2a bf
       -0.16296579 -0.39201134 -0.3040319 -0.6659477
0001a0 18 70 fc 3d f6 d5 de bd 28 84 ea bd 36 36 68 be
       0.12326068 -0.108806536 -0.11450988 -0.2267693
0001b0 38 0f 7c 3d dc 4e a1 3d 03 e0 07 3c 64 37 94 be
       0.06153795 0.07876369 0.008293155 -0.2894851
0001c0 8c 51 00 3e ef 2a f4 3d 8c f9 a4 3d ef 92 e6 bd
       0.12531108 0.119222514 0.0805541 -0.11258494
0001d0 66 b8 37 be d6 a2 51 3d de 97 8b bd 98 8d 88 be
       -0.17941436 0.051180683 -0.06816076 -0.26670527
0001e0 89 45 99 bd 3f 9d 62 bd 03 e5 f7 3c 06 3f 38 bf
       -0.07483966 -0.055325743 0.030260568 -0.71971166
0001f0 f9 aa d5 bd 97 77 98 3d 90 c4 6f 3c 03 32 03 be
       -0.10433001 0.07444685 0.0146342665 -0.12812047
000200 2b ba df be f6 b2 15 be 89 45 19 be 80 d9 51 bd
       -0.43696722 -0.1461905 -0.14967932 -0.051232815
000210 3e 01 5f be 32 54 95 bd 01 a3 1d be bc e2 21 be
       -0.21777818 -0.072914496 -0.15394212 -0.15809149
000220 96 51 22 3e 70 79 13 be 2c df 27 bd 23 2d 0f bd
       0.15851435 -0.14401793 -0.040984318 -0.034955155
000230 d8 be 85 be 16 c3 e7 be 76 64 7a 3d 13 f6 1d be
       -0.26122165 -0.45266026 0.061130963 -0.15425901
000240 0f b7 1b 3c 61 6e 93 bd 22 14 74 3c 11 9a e0 be
       0.009504094 -0.071987875 0.014897378 -0.43867543
000250 50 cf 12 bf 70 72 1e 3e 24 3f d8 3d 7c 10 51 3d
       -0.57347584 0.15473342 0.10558918 0.05104111
000260 c2 5e 02 3d 9d e0 d6 be d0 61 1e 3e 83 ee 8f 3d
       0.03182865 -0.4196824 0.15467 0.070279144
000270 11 58 fe 3d ec 36 c5 be 13 35 99 be 69 8c 1a 3d
       0.12419141 -0.38518465 -0.29923305 0.03773156
000280 19 34 8f 3d 7a 5d 00 be a3 14 1b be b9 ad a8 3c
       0.06992359 -0.12535658 -0.15144591 0.02059065
000290 a4 c2 b1 bd fc 96 aa be ee af 84 bc 6f 16 6d be
       -0.08679703 -0.33318317 -0.016197171 -0.23153089
0002a0 47 39 6a bd 19 d5 96 be b3 14 c0 3b 5f d2 08 3e
       -0.05718353 -0.29459456 0.0058618425 0.133615
0002b0 8b dd d6 3d 41 23 57 bb dc ea 93 3c db d4 a5 3c
       0.10491475 -0.003282741 0.018056326 0.020243099
0002c0 c6 2e f3 3c 5d a4 3d be 0b 5b 0b 3e be 1a d7 bd
       0.02968539 -0.18519731 0.13608949 -0.105031475
0002d0 67 ed 44 be 47 3d 20 be d9 77 c5 be 77 d0 b9 3d
       -0.19231187 -0.15648375 -0.38568 0.09072965
0002e0 89 f3 c5 bd 23 6b 84 be 76 11 8f bc 6a c8 27 bf
       -0.09665591 -0.2586299 -0.01746438 -0.6554018
0002f0 cd 63 cc 3b 90 51 96 3b b7 9d d3 bd 32 c2 76 3d
       0.006237483 0.0045873597 -0.10332816 0.060243793
000300 10 08 b0 be 36 cb 92 be 8e 32 d6 be 85 39 8e be
       -0.3438115 -0.28670663 -0.41835445 -0.2777826
000310 09 1c 2f be 35 40 85 be 4c b3 f3 3c 62 38 6a be
       -0.17100538 -0.2602555 0.029748581 -0.22873071
000320 63 b8 86 be 39 a2 af 3d 5c c5 e6 bc ff e1 9f 3d
       -0.2631255 0.085758634 -0.02817028 0.07806777
000330 03 b4 55 be a6 84 c3 be 5e cc 06 be c3 b6 88 be
       -0.2086945 -0.3818714 -0.13163897 -0.26701936
000340 75 32 cd bd d3 5f dc bc 4f 77 38 3d 0a 00 ed be
       -0.100193895 -0.026901161 0.045035657 -0.46289092
000350 58 50 86 be 8f f7 ac be 43 e9 c0 bd ea 33 c4 bc
       -0.26233172 -0.33782622 -0.09419491 -0.023950536
000360 85 d1 82 3c b6 20 70 be 7b b5 d2 bc 2b 90 c2 3d
       0.015969047 -0.23449978 -0.025721302 0.09500154
000370 50 6b 28 bc fd dd 02 bf 68 e2 49 be 8b 4a 8c bd
       -0.010279492 -0.5111998 -0.19715273 -0.068501554
000380 e1 d6 72 3d 5a 9e a8 3d 6c 7b 8c 3c 4c 18 09 3e
       0.059286956 0.08233328 0.017148696 0.13388175
000390 28 e7 6f bc e2 7d a0 be 17 e3 cd bd eb 3b a2 be
       -0.014642514 -0.3134604 -0.100530796 -0.3168634
0003a0 7f 1f 76 3d 53 66 13 be 2a 78 ba 3d 19 49 3b 3d
       0.06008863 -0.14394502 0.09104951 0.04572401
0003b0 c1 52 23 be 17 59 eb 3d a8 c7 93 3d 05 ab 0e be
       -0.15949537 0.11491602 0.07215816 -0.13932426
0003c0 7e e0 b8 3c 2a 16 37 bc 2c d3 3d bc 05 8d 80 3c
       0.022567984 -0.011174718 -0.011585992 0.015692243
0003d0 ba e0 d5 bc 55 50 5e 3d 76 99 61 bd 6b ed 39 be
       -0.026108135 0.05427583 -0.055077992 -0.18156974
0003e0 f8 8d 3c 3d 9a 95 34 bd b0 08 9e bd ef fd e0 be
       0.04603383 -0.044087984 -0.07716501 -0.43943736
0003f0 bb f1 0f 3d f7 9a 1f 3e 6b 8d d9 bd 52 ea 95 be
       0.03514264 0.15586458 -0.106226765 -0.29280335

fc4.bias f4 [10]
000000 e4 4e 94 be e9 23 a3 bf c6 cb 5d 3e d9 6a a7 3e
       -0.2896644 -1.2745334 0.21659765 0.32698706
000010 59 52 03 3e 3a c2 a7 be 48 07 9b 3c da 09 b6 3e
       0.12824382 -0.3276537 0.01892437 0.3555439
000020 a4 31 56 be dd 20 eb be
       -0.20917374 -0.4592351
